HW3/best_cnn_adam.pth (torch, 440584 bytes, 8 tensors)

conv_layers.0.weight f4 [32, 3, 3, 3]
0.04537083 0.17712158 -0.018786425 0.11123781 -0.09092204 0.044097964 0.069763936 -0.0055469708
0.060515154 0.102509275 0.14919728 0.047168117 0.15645401 0.17618184 -0.060055014 0.08847394
0.108625054 -0.014468674 -0.16723545 -0.062053923 -0.071784444 0.1474767 0.17017855 0.16495934
-0.12770465 -0.11883705 0.09143078 0.062027473 0.13955314 -0.020365806 -0.019054051 0.17352305
0.049450763 0.19575574 0.11612706 -0.01217656 0.18789922 -0.06240354 0.033399317 -0.032738246
0.027198851 -0.088195525 -0.050588794 0.073422424 0.20293134 0.17060126 -0.122862585 0.13481252
-0.14542186 0.14563458 -0.041649964 -0.08940785 -0.15689182 -0.066898376 0.007641527 -0.067242816
0.018561753 0.059810698 -0.03020682 0.039465286 -0.04470979 0.012593205 0.046264242 -0.18316431
0.16163662 0.00487556 -0.08305234 0.02710673 -0.07984647 -0.12377055 0.16015 -0.1703188
-0.017075622 0.1854212 0.13858975 0.1218756 0.013286748 0.16821644 0.045853443 0.08916183
-0.017986119 0.14794624 -0.06514378 -0.04013314 0.00827394 0.05562957 -0.07262255 0.07896072
-0.1010569 0.004170183 0.03738585 -0.10862265 0.08729272 0.13510881 0.15202907 0.13795172
0.20005418 0.21796393 0.13165689 0.1053307 -0.06398986 -0.034222554 -0.10084971 -0.15671533
-0.120248996 -0.15470006 0.057584397 0.14810105 -0.16368353 -0.04038254 -0.03152537 -0.07886817
-0.20008942 0.11375987 -0.027092852 0.030146072 -0.1847425 0.047184594 -0.1311769 -0.04658327
0.035485405 0.0953915 -0.19766015 0.054878835 0.004443581 0.122482605 0.034047127 -0.013332654
0.14168572 -0.058162343 -0.076754235 -0.0670931 0.115405716 0.046869114 -0.1776126 0.004472111
0.015420392 -0.08840567 -0.14999261 0.08330518 0.04036104 -0.1608958 0.0890501 0.028342163
-0.21079521 -0.20760588 -0.21277511 -0.119871944 0.060206454 -0.0073663043 0.039192516 -0.15195917
-0.16734767 -0.017414803 -0.052435357 0.06950191 -0.1412884 0.031793255 0.005287717 -0.13708559
-0.119888276 0.10616738 -0.11111066 0.021999933 -0.18555681 0.16506226 -0.09620931 -0.09301071
0.16200809 -0.0068352865 0.013360965 -0.10428998 0.06295351 -0.045170754 0.042634353 -0.017517954
-0.051387265 -0.01699884 -0.15655392 -0.20463474 0.040265497 0.16002835 0.02597054 0.22180405
-0.012008352 0.08649148 0.08995444 0.19091003 -0.20068242 0.119907886 0.18981886 -0.015751533
-0.11535526 -0.07000702 -0.14916947 -0.09249449 0.14764759 -0.13026412 0.20396245 -0.055196807
0.1574267 0.013897672 0.19357635 0.06458438 0.17154507 0.10792387 0.08616444 0.052478228
0.18684156 0.059116174 -0.14863846 -0.127212 0.12897283 0.024805967 0.1438826 0.12430442
-0.12057353 0.08409945 0.060753178 0.1786758 -0.123839974 0.0694514 0.13732852 0.07473408
0.1266082 -0.16308299 -0.1664053 -0.19924502 0.12575905 -0.20477203 -0.14185548 -0.027827444
-0.13822946 -0.21106243 -0.1433457 0.16496953 0.16422404 -0.15623316 0.11896328 0.16125032
-0.002549851 0.05467461 0.13522004 -0.111036874 0.055251617 -0.18169633 -0.14602254 -0.10442848
-0.08954744 0.06603718 -0.19974445 -0.037496135 0.14258528 0.0838544 0.14912812 -0.060374796
00000000: c3d6 393d 5c5f 353e fde5 99bc a6d0 e33d
00000010: 5635 babd 11a0 343d 65e0 8e3d 5dc3 b5bb
00000020: bdde 773d 62f0 d13d 2cc7 183e 5b33 413d
00000030: 7b35 203e 0369 343e 3ffc 75bd d331 b53d
00000040: d076 de3d 040e 6dbc c53f 2bbe 412c 7ebd
00000050: b903 93bd 2204 173e 4943 2e3e 1aeb 283e
00000060: 02c5 02be d760 f3bd 1040 bb3d 8510 7e3d
00000070: 05e7 0e3e 31d6 a6bc 3e17 9cbc 07b0 313e
00000080: e28c 4a3d 3174 483e 06d4 ed3d 3280 47bc
00000090: a768 403e db9a 7fbd b9cd 083d 8a18 06bd
000000a0: 20d0 de3c db9f b4bd 3236 4fbd 7f5e 963d
000000b0: 3ccd 4f3e 19b2 2e3e 619f fbbd 4b0c 0a3e
000000c0: 78e9 14be 3b21 153e 2799 2abd 761b b7bd
000000d0: 40a8 20be 0402 89bd c665 fa3b 9ab6 89bd
000000e0: d10e 983c 10fc 743d 4b74 f7bc 5aa6 213d
000000f0: 9d21 37bd bb53 4e3c 937f 3d3d 6d8f 3bbe
00000100: 1284 253e 29c3 9f3b 5817 aabd ef0e de3c
00000110: 8c86 a3bd 6a7b fdbd 5dfe 233e 0d68 2ebe
00000120: 2de2 8bbc 0edf 3d3e 79ea 0d3e ea99 f93d
00000130: a9b0 593c ee40 2c3e d2d0 3b3d 7a9a b63d
00000140: a057 93bc 387f 173e 1a6a 85bd a662 24bd
00000150: 6b8f 073c d5db 633d 22bb 94bd 28b6 a13d
00000160: ecf6 cebd 08a6 883b e821 193d 8d75 debd
00000170: 87c6 b23d f759 0a3e 82ad 1b3e 3743 0d3e
00000180: 01db 4c3e f031 5f3e 10d1 063e 9fb7 d73d
00000190: 1e0d 83bd f32c 0cbd 4b8a cebd fc79 20be
000001a0: 1b45 f6bd b169 1ebe 9edd 6b3d cda7 173e
000001b0: a89c 27be 2a68 25bd bf20 01bd a385 a1bd
000001c0: 3ee4 4cbe effa e83d d4f1 ddbc e5f4 f63c
000001d0: 232d 3dbe a244 413d 3d53 06be 19ce 3ebd
000001e0: 2559 113d 9e5c c33d 6c67 4abe a1c8 603d
000001f0: 769b 913b 29d8 fa3d 0075 0b3d 3471 5abc
00000200: 1016 113e a33b 6ebd 5331 9dbd 1b68 89bd
00000210: d559 ec3d d4f9 3f3d 14e0 35be c98a 923b
00000220: d0a5 7c3c 080e b5bd aa97 19be e89b aa3d
00000230: 9e51 253d dec1 24be e65f b63d d32d e83c
00000240: b3da 57be a396 54be b8e1 59be 6c7f f5bd
00000250: 0b9b 763d 0a61 f1bb 5588 203d 2f9b 1bbe
00000260: 305d 2bbe 7da9 8ebc 75c6 56bd 0457 8e3d
00000270: e8ad 10be a539 023d 9644 ad3b 2a60 0cbe
00000280: fc87 f5bd 496e d93d fc8d e3bd 3439 b43c
00000290: 9b02 3ebe 1506 293e 6309 c5bd 667c bebd
000002a0: 73e5 253e 8afa dfbb f3e7 5a3c fc95 d5bd
000002b0: c5ed 803d f804 39bd 5ca1 2e3d d081 8fbc
000002c0: 747b 52bd 2741 8bbc ac4f 20be c58b 51be
000002d0: 6fed 243d 79de 233e 2bc0 d43c 9a20 633e
000002e0: aebe 44bc 7222 b13d 093a b83d eb7d 433e
000002f0: b17f 4dbe 4492 f53d e05f 423e 5c09 81bc
00000300: 613f ecbd d75f 8fbd e2bf 18be c06d bdbd
00000310: ee30 173e f563 05be 88db 503e 0c16 62bd
00000320: 7734 213e 10b3 633c e138 463e d144 843d
00000330: 83a9 2f3e 3107 dd3d fb76 b03d 69f3 563d
00000340: 6553 3f3e cd23 723d ae34 18be dd43 02be
00000350: 7411 043e e235 cb3c f655 133e 5193 fe3d
00000360: 41ef f6bd 553c ac3d 53d8 783d caf6 363e
00000370: d09f fdbd 893c 8e3d d99f 0c3e 2e0e 993d
00000380: 94a5 013e 3aff 26be 2766 2abe e306 4cbe
00000390: fbc6 003e c2af 51be 9042 11be 61f6 e3bc
000003a0: 068c 0dbe c020 58be 37c9 12be c6ed 283e
000003b0: 592a 283e 96fb 1fbe 05a3 f33d ce1e 253e
000003c0: 671b 27bb 7cf2 5f3d 1f77 0a3e 4d67 e3bd
000003d0: 854f 623d 9a0e 3abe ef86 15be 99de d5bd
000003e0: a664 b7bd 803e 873d cf89 4cbe 8c95 19bd
000003f0: e001 123e dbbb ab3d 0bb5 183e 904b 77bd

conv_layers.0.bias f4 [32]
-0.1249293 0.008550487 0.007969424 0.117319375 -0.018355845 0.0345713 -0.14248571 0.16586314
-0.019799847 0.11923144 0.14179057 0.06257584 0.15178649 -0.041968208 -0.13463372 -0.060039632
-0.21254937 0.05790873 -0.022791767 0.0474211 0.143036 -0.07237885 -0.16995552 0.026768994
-0.15008228 0.031276446 -0.13776457 0.013021892 -0.1655175 0.11500213 0.16425237 0.026549628
00000000: efda ffbd 5817 0c3c 3092 023c 2445 f03d
00000010: ff5e 96bc a39a 0d3d c6e7 11be 07d8 293e
00000020: 4a33 a2bc 9d2f f43d 8c31 113e c327 803d
00000030: eb6d 1b3e dbe6 2bbd 6cdd 09be 1eec 75bd
00000040: 8ba6 59be b431 6d3d cdb5 babc a13c 423d
00000050: 0778 123e 5d3b 94bd d208 2ebe a64a db3c
00000060: 2baf 19be bb1b 003d 2812 0dbe c659 553c
00000070: 6b7d 29be 3d86 eb3d c631 283e 9b7e d93c

conv_layers.3.weight f4 [64, 32, 3, 3]
0.007528261 0.02155302 0.008312092 0.028933229 -0.051918875 0.049939148 -0.0066414224 -0.016971339
-0.05642398 -0.037975494 0.031384278 0.0625729 -0.048160378 -0.0046675364 0.04293934 -0.05358838
-0.063474394 0.01268298 -0.02145943 -0.046253935 0.024167264 0.017530976 0.034874443 0.017716335
-0.043447636 0.00019824666 0.026445748 -0.02926263 -0.026782526 -0.037642494 -0.02012195 0.040529273
-0.014633646 -0.043589085 -0.019090684 -0.0025262844 0.041614447 -0.036328766 -0.026228601 0.0089638205
0.016800463 -0.02816941 0.014546503 -0.056409046 0.029960921 0.056594606 0.020083854 -0.023809621
0.065104395 0.04196943 -0.042331725 -0.031013785 0.0036884213 0.0232895 -0.01959245 -0.0056894575
0.03142121 -0.0018821427 0.05108049 0.0072422447 0.015796311 0.067314185 0.0026204055 -0.052480754
0.034189776 0.020639556 -0.05024947 0.02406274 -0.05181777 -0.039837103 -0.03521498 -0.053741254
0.020815356 -0.0052776653 0.0077702375 0.048277266 0.006111229 0.0046822857 0.017806044 -0.03951656
-0.046880133 -0.03208897 0.015659072 0.0024849465 -0.015561351 0.031448334 0.043859903 -0.011449723
0.046268914 -0.02584217 -0.009560075 -0.018697297 0.0333745 -0.0061268704 -0.04296435 -0.032510296
0.04991214 -0.0079185655 0.009147437 -0.026735203 0.038356252 -0.010360261 -0.0033197885 -0.032328434
-0.03541574 -0.035235967 -0.009442895 0.01167155 -0.005165638 -0.028892426 0.027950032 -0.04978023
-0.025657348 -0.0103269 -0.03155856 0.03297191 0.019908234 -0.0038839772 0.046044942 0.068710014
-0.030518008 0.013878026 0.012206494 0.03313613 0.05369088 -0.0041296314 -0.05976107 -0.010301275
0.009083029 -0.028334599 0.0493513 0.031465314 0.007819609 -0.02843409 -0.025961298 -0.021770367
-0.0125825945 -0.009615661 0.03866779 -0.026006676 -0.02314567 -0.03004558 0.030718734 0.022293169
0.042810835 0.038512897 0.011973851 -0.02179708 -0.0038944473 -0.013251001 -0.0063837017 0.02128004
-0.0016849331 0.01550695 -0.051631123 0.002396247 -0.05662408 -0.042958133 0.02479837 -0.058836583
-0.04976316 -0.056845278 0.012404386 0.04628202 0.0145887695 -0.014930155 0.003490882 -0.025411354
-0.017329827 -0.033113986 0.04841694 -0.052229356 -0.05495449 0.0329761 -0.060808383 -0.0629925
-0.04772329 -0.02764396 0.011173177 -0.06652901 -0.06939148 -0.036797974 0.024726039 -0.0020180473
-0.06285433 0.037137687 -0.005036873 0.012214553 -0.05504635 -0.05404443 -0.035767425 -0.065825544
-0.0043696975 0.0014573805 -0.04959927 -0.039177563 -0.040617906 -0.057970405 0.032683097 0.07632233
-0.033209376 0.07037319 -0.030260613 0.0022542821 0.006971155 0.06297873 0.046934806 0.016561296
-0.037268914 0.026595179 -0.02719211 0.0034939582 -0.056656897 -0.0014504684 -0.029018618 -0.068212144
0.05815271 0.02354849 -0.02395514 0.041237738 -0.045720715 0.02102733 -0.05701487 0.0021415271
0.013665459 0.00826508 -0.029902168 -0.008811972 0.026763774 -0.011487958 0.0063372394 -0.03500381
-0.010919347 -0.021603977 0.116935074 0.12904589 0.067703955 0.024668016 0.08704451 0.08092832
0.06732594 0.06121361 0.06202168 -0.02804276 -0.008894817 -0.04347737 0.002346768 0.011163506
0.049151268 0.0015147671 0.024534758 -0.06162247 -0.027885165 0.056168362 -0.014965453 -0.023009865
00000000: a1af f63b f68f b03c 712f 083c 6105 ed3c
00000010: e3a8 54bd fe8c 4c3d 4aa0 d9bb 7a07 8bbc
00000020: d51c 67bd 318c 1bbd cd8c 003d 3826 803d
00000030: d143 45bd 22f2 98bb 29e1 2f3d 7d7f 5bbd
00000040: ddfe 81bd 46cc 4f3c b0cb afbc c474 3dbd
00000050: 6dfa c53c 1f9d 8f3c 81d8 0e3d d921 913c
00000060: 26f6 31bd 6fe0 4f39 c1a4 d83c 2fb8 efbc
00000070: 0767 dbbc 042f 1abd cad6 a4bc 0602 263d
00000080: f6c1 6fbc 788a 32bd 1164 9cbc 0590 25bb
00000090: e973 2a3d 79cd 14bd 5ddd d6bc fddc 123c
000000a0: 20a1 893c 89c3 e6bc 7554 6e3c 2c0d 67bd
000000b0: 9b70 f53c bfcf 673d e586 a43c 650c c3bc
000000c0: 7455 853d 23e8 2b3d 0864 2dbd 9f10 febc
000000d0: 71b9 713b 9fc9 be3c 5880 a0bc a16e babb
000000e0: 87b3 003d 3bb2 f6ba c739 513d 5a50 ed3b
000000f0: 4467 813c 05dc 893d 1cbb 2b3b 0ff6 56bd
00000100: 940a 0c3d 4914 a93c 63d2 4dbd 391f c53c
00000110: df3e 54bd 3b2c 23bd 953d 10bd ca1f 5cbd
00000120: f784 aa3c 44f0 acbb 7a9d fe3b 62be 453d
00000130: b440 c83b dc6d 993b fbdd 913c 1edc 21bd
00000140: 6205 40bd b96f 03bd 7447 803c 7cda 223b
00000150: 09f5 7ebc f8cf 003d 71a6 333d 9e97 3bbc
00000160: 7984 3d3d f5b2 d3bc dca1 1cbc 132b 99bc
00000170: b3b3 083d eac3 c8bb 63fb 2fbd 8429 05bd
00000180: ac70 4c3d dfbc 01bc 22df 153c c903 dbbc
00000190: 721b 1d3d 16be 29bc cf90 59bb d26a 04bd
000001a0: 1810 11bd 9753 10bd 5fb6 1abc 073a 3f3c
000001b0: 8344 a9bb cfaf ecbc 77f7 e43c 5be6 4bbd
000001c0: 5c2f d2bc 2832 29bc 8c43 01bd 8e0d 073d
000001d0: 9816 a33c 538a 7ebb 9f99 3c3d d6b7 8c3d
000001e0: e700 fabc a960 633c bffd 473c c0b9 073d
000001f0: f8ea 5b3d dc51 87bb 06c8 74bd aec6 28bc
00000200: fcd0 143c f61d e8bc 9724 4a3d c6e1 003d
00000210: d11d 003c 9cee e8bc caac d4bc c557 b2bc
00000220: 3a27 4ebc 018b 1dbc 1e62 1e3d f40b d5bc
00000230: fd9b bdbc 2622 f6bc dba5 fb3c 2aa0 b63c
00000240: 6a5a 2f3d b3bf 1d3d f92d 443c ca8f b2bc
00000250: fc39 7fbb ba1a 59bc 5f2e d1bb 7a53 ae3c
00000260: f9d8 dcba dd10 7e3c 287b 53bd 5a0a 1d3b
00000270: a7ee 67bd def4 2fbd f425 cb3c a1fe 70bd
00000280: 75d4 4bbd 98d6 68bd c43b 4b3c 3792 3d3d
00000290: bc05 6f3c 9c9d 74bc 48c7 643b 792b d0bc
000002a0: 48f7 8dbc 88a2 07bd d750 463d 73ee 55bd
000002b0: f617 61bd f211 073d 3612 79bd 3602 81bd
000002c0: 7f79 43bd 9675 e2bc b30f 373c 5d40 88bd
000002d0: 1f1d 8ebd 79b9 16bd 438e ca3c 3741 04bb
000002e0: c5b9 80bd b01d 183d 5a0c a5bb 8c1f 483c
000002f0: 4878 61bd b15d 5dbd dd80 12bd 8bcf 86bd
00000300: ae2f 8fbb 9305 bf3a 9b28 4bbd a778 20bd
00000310: f65e 26bd 6072 6dbd b6de 053d e24e 9c3d
00000320: 8e06 08bd d21f 903d 1be5 f7bc 94bc 133b
00000330: 496e e43b fefa 803d b63e 403d 8eab 873c
00000340: 4aa7 18bd 22de d93c fdc1 debc e4fa 643b
00000350: 1011 68bd a51d beba 74b8 edbc cfb2 8bbd
00000360: 8931 6e3d c3e8 c03c 923d c4bc e7e8 283d
00000370: a545 3bbd 8241 ac3c 6d88 69bd dd58 0c3b
00000380: 17e5 5f3c 426a 073c 64f5 f4bc 1760 10bc
00000390: b43f db3c fd37 3cbc 9ea8 cf3b 2860 0fbd
000003a0: 10e7 32bc d3fa b0bc a87b ef3d 9b24 043e
000003b0: 5fa8 8a3d 9414 ca3c 6444 b23d bfbd a53d
000003c0: 2fe2 893d 1fbb 7a3d 720a 7e3d eeb9 e5bc
000003d0: 91bb 11bc 5415 32bd 3ccc 193b 23e7 363c
000003e0: d752 493d 268b c63a 1efd c83c d867 7cbd
000003f0: 6e6f e4bc cc10 663d a931 75bc 2f7f bcbc

conv_layers.3.bias f4 [64]
-0.039398517 -0.001902471 -0.027830096 -0.055351213 -0.053384304 0.059689466 -0.017728444 0.06904685
0.047044348 -0.007179983 0.0099424785 0.013945593 0.03994915 -0.040068865 0.055065107 0.03297205
0.023329271 -0.03888511 0.053245865 -0.028832309 0.03301149 -0.048113164 0.012754549 -0.040454086
0.018010546 0.070860244 -0.021385035 0.013150081 -0.0678305 -0.0005022248 -0.03746042 0.032163348
0.075744845 -0.0036775316 0.0010474586 0.009724897 -0.021485124 -0.009971995 0.0075565223 -0.0069663282
0.07456899 -0.059851557 0.04563462 -0.0056578773 0.015194463 0.058765545 0.009895465 -0.05399932
0.022928013 -0.0033667816 0.03472131 0.028017076 -0.0055978913 0.01817076 0.032036696 -0.00095209247
-0.08187087 0.027119726 0.07602015 0.021833269 0.008741581 -0.030341187 -0.0362529 0.020385556
00000000: 5760 21bd 555c f9ba f1fb e3bc f4b7 62bd
00000010: 80a9 5abd f17c 743d 3e3b 91bc 6f68 8d3d
00000020: 93b1 403d 1046 ebbb c7e5 223c 0e7c 643c
00000030: b8a1 233d 401f 24bd f38b 613d b30d 073d
00000040: 071d bf3c fe45 1fbd 5618 5a3d bc31 ecbc
00000050: 0e37 073d 4f12 45bd 75f8 503c 2fb3 25bd
00000060: da8a 933c 2d1f 913d ab2f afbc 7073 573c
00000070: b8ea 8abd bca7 03ba 1970 19bd b7bd 033d
00000080: 1d20 9b3d be02 71bb e14a 893a 2d55 1f3c
00000090: 9201 b0bc 9461 23bc b49c f73b cc45 e4bb
000000a0: a0b7 983d e826 75bd 5eeb 3a3d b765 b9bb
000000b0: 32f2 783c 24b4 703d 9720 223c 642e 5dbd
000000c0: 87d3 bb3c 39a5 5cbb ef37 0e3d 1184 e53c
000000d0: 846e b7bb d8da 943c e938 033d d895 79ba
000000e0: eaab a7bd 302a de3c 74b0 9b3d afdb b23c
000000f0: d938 0f3c 158e f8bc ec7d 14bd 9cff a63c

conv_layers.6.weight f4 [128, 64, 3, 3]
-0.023780715 -0.016447634 0.034247108 0.0025785503 -0.010445742 0.0047108587 0.010784422 0.013619049
0.020443248 -0.00199221 0.045375396 0.015127095 0.01207498 0.04700898 -0.029868698 -0.026005797
0.019009393 0.0052621085 -0.059275158 0.0403979 0.07188901 -0.06976913 0.057074167 0.032484125
-0.064680025 0.04172394 0.021524474 0.020180922 0.046622638 0.035151273 0.0013272635 0.037310325
-0.009167693 0.033247318 -0.015502686 0.018704405 -0.034471493 -0.0048626894 0.042174328 -0.030717827
0.001139259 0.05437765 -0.061884984 -0.015267709 0.029567966 -0.016448364 -0.05318686 0.0011519288
-0.03995587 -0.06792551 -0.050852314 -0.042484123 -0.05623413 0.013260768 0.012970109 -0.047840584
-0.07940031 -0.014168444 -0.051249716 -0.033406205 -0.002648123 -0.06807799 -0.0675768 -0.01631174
-0.08795357 0.011362696 -0.019628555 -0.09070199 0.03055344 -0.070490964 -0.044252962 0.009136402
-0.003856363 3.8328057e-05 -0.003860926 -0.0341012 -0.011911646 0.012493409 -0.009716248 -0.030207574
-0.01579397 -0.0003221558 -0.07881282 -0.046190582 -0.021050408 -0.08000244 -0.03349441 -0.062696144
-0.06885655 -0.05015135 0.014000756 -0.014774681 0.02788415 0.013331783 -0.010104984 -0.012421775
0.05706457 0.008362452 -9.1118005e-07 -0.010839677 -0.024865095 0.015635818 -0.009976238 -0.054627977
0.018666532 -0.06802221 -0.07917958 0.015650103 -0.017600188 0.032351304 0.054133143 -0.048617914
0.012961916 0.025467139 -0.031479955 0.013648344 0.064549156 -0.02099026 0.025794463 -0.008438516
0.036751203 0.039578557 0.020350799 0.04143373 0.000120444834 -0.02373399 -0.0201505 -0.046616476
0.05117393 -0.047519326 -0.073432416 0.086606234 -0.05733333 -0.009162417 0.04995641 0.017285222
-0.007453319 -0.050155662 -0.018411687 -0.0076812846 -0.060354207 -0.016529871 0.012836426 0.0026456928
-0.055769496 0.006068329 0.0713282 0.0073332493 0.011769906 0.02853996 0.0099967765 0.042605992
0.04057689 0.02894042 -0.05831622 -0.011460732 -0.005742112 -0.063222 -0.023392547 -0.031661764
-0.042530384 -0.05331541 0.0024444088 -0.06803478 -0.022117555 -0.026343107 -0.049505815 0.017521856
-0.064433955 -0.0037192116 0.029557085 -0.03864226 -0.05656198 -0.047535274 -0.043307215 -0.024405517
-0.029403389 -0.032079883 -0.034618482 -0.036015008 -0.045249667 -0.049333554 -0.06121067 -0.05683175
-0.045560136 -0.081854634 -0.078041784 -0.056760944 -0.031166166 -0.009351293 -0.01423154 0.05698111
-0.008373692 0.05375207 0.037714858 -0.013293458 0.014514779 -0.007313429 -0.026164431 0.011705158
-0.022429502 0.0007787028 -0.041338608 -0.025822286 -0.016514687 -0.034921736 -0.0070282933 0.010587649
0.012432935 -0.019017778 0.0043812958 0.0031731257 -0.007948307 0.02791221 -0.010829751 -0.02962813
0.04321863 0.02504373 -0.0011029821 0.023272526 0.029619548 -0.022329507 -0.009326023 -0.0045403144
-0.04379276 0.000117165604 -0.06209588 -0.07901528 -0.058104478 -0.08686779 -0.05580891 -0.09036693
-0.05239212 -0.012275413 -0.010065001 0.035196602 0.049747206 -0.0029547024 0.013010812 0.018020064
-0.0033064438 -0.0097431755 -0.026810817 -0.009154483 -0.00795266 -0.0038761438 -0.02491544 0.01666926
-0.022803744 -0.047969997 -0.032487217 -0.028116452 0.022675268 -0.0010655719 0.011305821 -0.036473513
00000000: c6cf c2bc 30bd 86bc b246 0c3d e5fc 283b
00000010: 9e24 2bbc 8c5d 9a3b 25b1 303c 6f22 5f3c
00000020: 9978 a73c bd8f 02bb 8ddb 393d a3d7 773c
00000030: 23d6 453c 7d8c 403d 33af f4bc 1c0a d5bc
00000040: 96b9 9b3c c46d ac3b 82ca 72bd 4578 253d
00000050: 8c3a 933d 1ee3 8ebd 9ac6 693d 130e 053d
00000060: f676 84bd b9e6 2a3d 1854 b03c 7652 a53c
00000070: 61f7 3e3d c8fa 0f3d 93f7 ad3a b6d2 183d
00000080: 1734 16bc 572e 083d fafe 7dbc fb39 993c
00000090: fb31 0dbd 3257 9fbb fdbe 2c3d f4a3 fbbc
000000a0: 3053 953a 19bb 5e3d 1c7b 7dbd 6a25 7abc
000000b0: 8538 f23c b8be 86bc 77da 59bd 51fc 963a
000000c0: c4a8 23bd 881c 8bbd 844a 50bd d503 2ebd
000000d0: c255 66bd b143 593c 9480 543c 7df4 43bd
000000e0: a19c a2bd c322 68bc 39eb 51bd f2d4 08bd
000000f0: 228c 2dbb 796c 8bbd b565 8abd 33a0 85bc
00000100: 0021 b4bd 9a2a 3a3c 10cc a0bc f7c1 b9bd
00000110: 354b fa3c 915d 90bd 9842 35bd d9b0 153c
00000120: 09bb 7cbb 70c2 2038 9707 7dbb b3ad 0bbd
00000130: 1129 43bc 28b1 4c3c e630 1fbc e075 f7bc
00000140: 5b62 81bc 05e7 a8b9 9e68 a1bd 5632 3dbd
00000150: e871 acbc 52d8 a3bd 6f31 09bd d666 80bd
00000160: aa04 8dbd 816b 4dbd 6d63 653c 8111 72bc
00000170: 4d6d e43c 8d6d 5a3c 608f 25bc b384 4bbc
00000180: 8abc 693d aa02 093c d197 74b5 e798 31bc
00000190: e2b1 cbbc b016 803c 6073 23bc 96c1 5fbd
000001a0: 8eea 983c 3a4f 8bbd e728 a2bd a534 803c
000001b0: 452e 90bc cd82 043d b7ba 5d3d 9423 47bd
000001c0: 375e 543c 76a0 d03c 20f1 00bd 4e9d 5f3c
000001d0: 5932 843d c4f3 abbc e94e d33c b441 0abc
000001e0: 6e88 163d 201d 223d b8b6 a63c 6ab6 293d
000001f0: 5497 fc38 c96d c2bc a912 a5bc ebf0 3ebd
00000200: c19b 513d a0a3 42bd bc63 96bd 9c5e b13d
00000210: 5bd6 6abd f61d 16bc 189f 4c3d bd99 8d3c
00000220: f93a f4bb 0670 4dbd 1bd4 96bc 49b3 fbbb
00000230: f935 77bd a769 87bc df4f 523c 5c63 2d3b
00000240: 8e6e 64bd d5d8 c63b 8514 923d c14b f03b
00000250: 90d6 403c a2cc e93c 85c9 233c 9f83 2e3d
00000260: f433 263d 7614 ed3c fddc 6ebd cbc5 3bbc
00000270: 5428 bcbb 897a 81bd baa1 bfbc c4af 01bd
00000280: 5734 2ebd 4261 5abd 6032 203b d255 8bbd
00000290: e02f b5bc 80cd d7bc 9cc6 4abd ff89 8f3c
000002a0: f3f5 83bd 04be 73bb b321 f23c 5947 1ebd
000002b0: 89ad 67bd 59b4 42bd e862 31bd 14ee c7bc
000002c0: 60df f0bc 3266 03bd 1ccc 0dbd 7984 13bd
000002d0: b757 39bd fb11 4abd 0ab8 7abd 69c8 68bd
000002e0: 449d 3abd 67a3 a7bd 5fd4 9fbd 2a7e 68bd
000002f0: 3050 ffbc 2a36 19bc 682b 69bc 0665 693d
00000300: cf31 09bc 212b 5c3d e57a 1a3d cecc 59bc
00000310: 65cf 6d3c 7da5 efbb ca56 d6bc fec6 3f3c
00000320: 13be b7bc dc21 4c3a ac52 29bd 4289 d3bc
00000330: cf49 87bc 180a 0fbd 994d e6bb d277 2d3c
00000340: 82b3 4b3c 2ccb 9bbc f990 8f3b 37f4 4f3b
00000350: 9e39 02bc 26a8 e43c 456f 31bc b1b6 f2bc
00000360: 0506 313d 8228 cd3c f091 90ba 06a6 be3c
00000370: b2a4 f23c 5fec b6bc 2dcc 18bc ebc6 94bb
00000380: 0a60 33bd ceb6 f538 4058 7ebd c3d2 a1bd
00000390: f6fe 6dbd bde7 b1bd e297 64bd 4c12 b9bd
000003a0: 1f99 56bd d01e 49bc ade7 24bc 502a 103d
000003b0: bac3 4b3d aea3 41bb 4d2b 553c d09e 933c
000003c0: ecb0 58bb d7a1 1fbc 5ca2 dbbc affc 15bc
000003d0: e04b 02bc e706 7ebb 771b ccbc f98d 883c
000003e0: ebce babc 307c 44bd 5111 05bd 7954 e6bc
000003f0: 7cc1 b93c a9aa 8bba 0d3c 393c 4065 15bd

conv_layers.6.bias f4 [128]
-0.03821987 -0.010473076 0.004991456 -0.022631323 -0.03507028 0.010747984 -0.018305207 -0.044954494
0.00013240284 -0.03675657 -8.92913e-06 -0.047863755 -0.020760743 -0.027648313 -0.06272617 -0.0058437884
-0.019608771 0.013396093 0.03324102 0.015358366 -0.047137123 -0.0010906255 -0.058262862 -0.01823832
-0.013203451 -0.03528911 0.038073942 0.004862568 -0.054304417 -0.011807361 0.00032568886 -0.036224082
-0.012978509 -0.040533893 0.018232392 -0.008122024 -0.0035094724 -9.623658e-09 0.0064541353 -0.05126184
-0.009187329 0.013909306 0.00045266867 -0.01779757 0.018867413 -0.04259762 -0.0058031157 0.04354781
-9.012338e-05 -0.0071280873 0.053005077 -0.013065478 0.028657839 -0.017379342 -0.020907147 -0.03453109
0.00035766696 -0.028522277 -0.011073831 0.010532016 -0.020827612 -0.016031427 0.0024895084 0.020736717
-0.001514604 -0.011905469 0.040781617 -0.013264367 -0.025078965 -0.01596108 -0.0002724893 -0.04497059
-0.035887595 -0.031012282 0.051164318 -0.06274731 -0.04395079 0.018975407 -0.0051651644 -0.015184581
-0.027509322 -0.052725993 -0.015556456 -0.010285922 0.010405297 -0.0015781135 -0.019474829 0.059801526
-0.0042491104 0.0027291472 0.0007523875 0.04847237 0.0075362907 -0.031395886 -0.01646162 0.0042503565
-0.02284155 0.02212375 0.01124383 0.0071443003 -0.005610345 -0.010382379 -0.0025802816 -0.018846646
0.018113768 -0.019291928 -0.0037287879 -0.01566456 0.008664159 -0.010566521 -0.0004772645 0.016255103
0.0038859919 -0.0009506554 -0.06192166 -0.01813365 -0.0041971398 -0.044053975 -0.078487575 -0.04563992
0.039096653 0.00047381886 0.014727796 -0.010486064 0.019691134 0.03578263 -0.033022765 -0.015256659
00000000: 708c 1cbd 4497 2bbc 5e8f a33b 5365 b9bc
00000010: dba5 0fbd 5018 303c cdf4 95bc 3422 38bd
00000020: 9ed5 0a39 0f8e 16bd 52ce 15b7 c90c 44bd
00000030: 6f12 aabc b77e e2bc 9476 80bd 407d bfbb
00000040: 93a2 a0bc 497b 5b3c bc27 083d a8a1 7b3c
00000050: db12 41bd 52f3 8eba 0aa5 6ebd 8768 95bc
00000060: 4a53 58bc 508b 10bd 6cf3 1b3d 2d56 9f3b
00000070: 4f6e 5ebd a973 41bc 38c1 aa39 b45f 14bd
00000080: d0a3 54bc de06 26bd 195c 953c 3d12 05bc
00000090: 2dff 65bb 4c55 25b2 367d d33b eff7 51bd
000000a0: 7386 16bc dce3 633c 2954 ed39 36cc 91bc
000000b0: d58f 9a3c d87a 2ebd 1028 bebb 305f 323d
000000c0: 9f00 bdb8 bb92 e9bb da1b 593d 9610 56bc
000000d0: d8c3 ea3c 1f5f 8ebc 7745 abbc 7970 0dbd
000000e0: 3f85 bb39 8da7 e9bc 036f 35bc 7a8e 2c3c
000000f0: ab9e aabc 5754 83bc 0527 233b 0ce0 a93c
00000100: ad85 c6ba 280f 43bc a00a 273d ca52 59bc
00000110: 6772 cdbc d0c0 82bc e5dc 8eb9 1533 38bd
00000120: dffe 12bd 780d febc ad91 513d a981 80bd
00000130: be05 34bd 5072 9b3c 8a40 a9bb c0c8 78bc
00000140: 3b5b e1bc 36f7 57bd 81e0 7ebc 4986 28bc
00000150: fb7a 2a3c b4d8 ceba ad89 9fbc 72f2 743d
00000160: 1f3c 8bbb 7edb 323b df3b 453a f78a 463d
00000170: fdf2 f63b f998 00bd 85da 86bc 9346 8b3b
00000180: 341e bbbc de3c b53c 0b38 383c bc1a ea3b
00000190: fcd6 b7bb db1a 2abc f119 29bb 4864 9abc
000001a0: 5363 943c 1b0a 9ebc ae5e 74bb f752 80bc
000001b0: 1ef4 0d3c 341f 2dbc 5b39 fab9 6c29 853c
000001c0: 20ac 7e3b 6735 79ba 91a1 7dbd 058d 94bc
000001d0: 2988 89bb f171 34bd 18be a0bd edf0 3abd
000001e0: d023 203d e46a f839 db4c 713c bdcd 2bbc
000001f0: 4d4f a13c cf90 123d e142 07bd 11f7 79bc

linear_layer.weight f4 [5, 3200]
0.01719367 0.016105078 -0.027469117 0.016095342 0.0422513 -0.009972725 -0.022397978 -0.06678592
-0.04411242 -0.01204285 -0.048560124 -0.044634465 -0.052951366 -0.008779688 -0.02092304 -0.06010689
-0.07568033 -0.010242931 0.03199175 -0.026342738 -0.06563794 -0.02038001 -0.023134286 -0.021287844
0.026135165 0.0027551 0.00958138 0.01698341 0.013018759 0.004477316 0.025709894 0.017051777
0.02953695 0.0020812626 0.021976456 0.007473028 0.023101695 -0.016787283 -0.04665234 0.014206078
-0.009310819 0.012143887 0.0011473263 -0.023044672 -0.004236837 7.953942e-05 0.0036007008 -0.0036405628
-0.001509119 0.008221603 0.038969766 -0.03063291 -0.025735712 -0.017694814 -0.024723416 0.0037991002
-0.034177907 -0.04004446 -0.04335866 0.011877331 0.058370743 -0.027462266 -0.044876836 -0.049833916
0.031994846 -0.020889712 -0.025136989 -0.013037453 -0.067205966 0.01895825 -0.022811504 -0.008750027
-0.03824076 -0.023849787 -0.0022996604 0.017337091 -0.025565146 -0.027083846 -0.014741164 0.019101262
0.0007137369 -0.010570598 0.012535222 -0.020807656 -0.018274907 0.015065273 0.016795814 0.051851433
0.023964051 0.031118447 -0.009903012 0.01307358 0.037275977 0.042999484 0.009696363 -0.020316178
-0.0063070646 -0.016230255 -0.017452111 -0.002401069 0.03010819 0.006782213 0.020021977 0.014467017
-0.024799569 0.03867459 -0.01001632 -0.061351866 -0.053089347 -0.06373321 -0.0030594645 -0.012165456
-0.02998308 -0.06861847 -0.0037841522 0.03830066 0.057461046 -0.0025208301 -0.002721558 0.05949965
0.025201116 0.03074009 0.00025013526 -0.0075307623 0.03884758 0.029899027 0.0015676054 0.009831981
0.0023113631 0.01977235 0.021224266 2.4641196e-05 -0.037633646 -0.021723444 -0.013899904 -0.019450797
-0.024853531 0.02666773 0.011135859 0.005985763 -0.027355252 0.022945585 0.0019427572 0.0011937938
0.01382573 -0.008621454 0.031021152 0.040342685 -0.0007138169 0.010338258 0.05033835 0.03694234
0.01511199 0.031053323 -0.023606945 0.021023031 0.033567246 -0.05145858 -0.03807963 -0.00037576462
-0.0052889204 -0.01757059 -0.036239862 0.0025690554 -0.010023494 0.020272508 0.0022587078 -0.049443614
-0.027644016 0.0049814265 0.0054292716 0.06733851 0.0057269186 0.011779883 0.035778202 0.021996902
0.0060599665 0.030670568 0.0220359 0.017673217 0.02561265 0.013307968 -0.017715301 -0.026204623
-0.0214021 -0.0063047577 0.013560886 -0.028379247 -0.030844944 -0.021196522 -0.00082012266 0.014833874
-0.01713606 -0.027381942 -0.032420132 0.025031412 0.07694206 0.04398424 -0.0076923803 0.0061714924
0.0443331 0.020277344 0.0035358425 0.014914729 0.0050217626 0.029420497 0.056159478 -0.06988502
-0.037066728 -0.035157595 -0.006687901 0.0028895247 -0.07728963 -0.031050527 -0.01979508 0.0013490517
0.003553296 -0.059576828 -0.0062856125 0.0017298494 0.022066377 0.07427422 0.046697993 0.021981413
-0.0021737288 0.008458473 0.010968655 -0.014251137 -0.013594395 -0.014734884 -0.008968532 -0.00072376424
0.022211041 -0.0012234325 -0.0034438167 0.0133204125 0.030071994 -0.045538206 -0.08721251 -0.020132544
0.028670667 0.027854687 -0.06954897 -0.035851695 -0.0076085734 0.032938942 -0.024635052 -0.049550362
-0.015954265 0.025195662 1.0214827e-10 -3.528335e-07 3.8452505e-10 -1.1727593e-10 4.624663e-09 -3.5224175e-06
00000000: bdd9 8c3c ccee 833c ea06 e1bc 61da 833c
00000010: b30f 2d3d a464 23bc f77b b7bc 0ec7 88bd
00000020: 3aaf 34bd 604f 45bc fbe6 46bd a1d2 36bd
00000030: 88e3 58bd aed8 0fbc cc66 abbc a432 76bd
00000040: 4afe 9abd f7d1 27bc c809 033d bacc d7bc
00000050: 2f6d 86bd fbf3 a6bc 1d84 bdbc d863 aebc
00000060: 6a19 d63c e88e 343b 38fb 1c3c cb20 8b3c
00000070: a24c 553c 73b6 923b 8e9d d23c 2bb0 8b3c
00000080: 79f7 f13c cb65 083b f807 b43c 4de0 f43b
00000090: c43f bd3c 7c85 89bc 8616 3fbd 9cc0 683c
000000a0: 688c 18bc 27f7 463c e261 963a 2ec8 bcbc
000000b0: 2ad5 8abb 67ce a638 bcf9 6b3b 8296 6ebb
000000c0: a2cd c5ba e7b3 063c c39e 1f3d def1 fabc
000000d0: b3d3 d2bc b7f4 90bc c388 cabc 53fa 783b
000000e0: 22fe 0bbd a905 24bd da98 31bd 2399 423c
000000f0: 2916 6f3d 8cf8 e0bc c6d0 37bd a61e 4cbd
00000100: 070d 033d e720 abbc 16ec cdbc 0b9b 55bc
00000110: 48a3 89bd 554e 9b3c 31df babc 465c 0fbc
00000120: 58a2 1cbd a160 c3bc e6b5 16bb 8406 8e3c
00000130: ff6d d1bc f1de ddbc ec84 71bc 407a 9c3c
00000140: 131a 3b3a 4d30 2dbc 8860 4d3c d174 aabc
00000150: 42b5 95bc 56d4 763c 6097 893c 2b62 543d
00000160: 4250 c43c 1dec fe3c 3e40 22bc 9232 563c
00000170: b2ae 183d 3a20 303d 7edd 1e3c 1d6e a6bc
00000180: 7eab cebb 50f5 84bc bbf7 8ebc 415b 1dbb
00000190: 73a5 f63c 543d de3b 2105 a43c 1107 6d3c
000001a0: 7728 cbbc 3f69 1e3d 7e1b 24bc 184c 7bbd
000001b0: 3774 59bd 8f86 82bd 4c81 48bb 9f51 47bc
000001c0: 149f f5bc d787 8cbd 8aff 77bb 27e1 1c3d
000001d0: 465c 6b3d 8334 25bb 2b5c 32bb e8b5 733d
000001e0: 9272 ce3c a4d2 fb3c 9624 8339 9dc4 f6bb
000001f0: a41e 1f3d ceee f43c 1c78 cd3a 5116 213c
00000200: 3d7a 173b a0f9 a13c 83de ad3c 91b4 ce37
00000210: bd25 1abd 5df5 b1bc 6cbc 63bc 4757 9fbc
00000220: a299 cbbc 4976 da3c 2e73 363c 3824 c43b
00000230: 1f18 e0bc 61f8 bb3c 1da4 fe3a 1379 9c3a
00000240: 5185 623c 0041 0dbc 1220 fe3c 5f3e 253d
00000250: 711f 3bba cc61 293c 962f 4e3d da50 173d
00000260: 4898 773c 8a63 fe3c 5a63 c1bc 7e38 ac3c
00000270: cf7d 093d 3bc6 52bd 63f9 1bbd 4602 c5b9
00000280: ae4e adbb 33f0 8fbc 4070 14bd 995d 283b
00000290: 9539 24bc 8812 a63c d406 143b 6385 4abd
000002a0: b475 e2bc 3c3b a33b 08e8 b13b c6e8 893d
000002b0: e0a8 bb3b 6900 413c 2a8c 123d d932 b43c
000002c0: af92 c63b d840 fb3c a284 b43c 6cc7 903c
000002d0: 9fd1 d13c aa09 5a3c ae1f 91bc 14ab d6bc
000002e0: 7553 afbc 2498 cebb 7a2e 5e3c 987b e8bc
000002f0: 89ae fcbc 54a4 adbc 80fd 56ba c709 733c
00000300: ec60 8cbc 1850 e0bc f9ca 04bd ad0e cd3c
00000310: cc93 9d3d d228 343d 5d10 fcbb 3b3a ca3b
00000320: a096 353d ac1c a63c 98b9 673b e85c 743c
00000330: 998d a43b 4103 f13c 7b07 663d e11f 8fbd
00000340: 48d3 17bd 6901 10bd 2e26 dbbb 2e5e 3d3b
00000350: 074a 9ebd ad5d febc 4b29 a2bc aad2 b03a
00000360: 6ade 683b d506 74bd 8af7 cdbb 1dbc e23a
00000370: 8cc4 b43c 151d 983d 6546 3f3d 5d12 b43c
00000380: 1e75 0ebb 6895 0a3c e0b5 333c 9a7d 69bc
00000390: 06bb 5ebc 956a 71bc c0f0 12bc ffba 3dba
000003a0: eef3 b53c 955b a0ba a8b1 61bb dc3d 5a3c
000003b0: 8b59 f63c 4586 3abd 799c b2bd 01ed a4bc
000003c0: bfde ea3c 832f e43c b16f 8ebd 3ad9 12bd
000003d0: 5751 f9bb fcea 063d 73cf c9bc 52f5 4abd
000003e0: 85b2 82bc 2267 ce3c 5da0 e02e 116d bdb4
000003f0: 1765 d32f 3df2 00af f7e6 9e31 ac62 6cb6

linear_layer.bias f4 [5]
-0.016671604 -0.007710134 0.0037030126 0.020253127 -0.012583056
00000000: e392 88bc 4ba5 fcbb 3eae 723b e3e9 a53c
00000010: 2a29 4ebc
