HW3/best_cnn_sgd.pth (torch, 440572 bytes, 8 tensors)

conv_layers.0.weight f4 [32, 3, 3, 3]
00000000: 2231 04bd 23f6 833d c42d ad3d 4b40 293e
00000010: f9d8 fe3d 4107 ddbd 1d01 ef3d 52ba 2dbd
00000020: 5289 17be 803b d33c 4815 3abd 046c 2d3d
00000030: 49f6 78bd 61ad 09be 991f 2fbe bc77 bdbd
00000040: fc49 63be 9a28 573d f630 05bc b85a a43d
00000050: cc16 16bc ec20 35bd c48f e93d 2cb4 cb3d
00000060: 4094 02be 9fd3 423d eee0 8f3d ed36 bb3d
00000070: 3228 423d 6b1a 693e a8fb b1bc 9780 a1bc
00000080: f133 5e3e ef4c 0e3e 1ae2 563e d881 ff3d
00000090: f50e 07bd f892 aabc 2b0e 67be 048a b73b
000000a0: 4cac 473d c70e debd 9b98 71be d247 69be
000000b0: fbc9 49be 244e 14be 0b09 b23d 515c a2bd
000000c0: 1ad2 0f3a e7cd 87bd efab 13bd 8d49 993d
000000d0: 70db 8f3d e4e7 c13c 84bb 0e3e 2e29 eebd
000000e0: bb4c 4b3d a0e2 e0bd 1825 1fbe 9a57 c03d
000000f0: 58e3 0a3e b78a fdbc 7b4f c0bc 484a e9bd
00000100: 8836 a2bd 8c3a 5c3d 3d52 343e 3e02 6a3d
00000110: e43d 9e3c 81a1 0c3e ccc6 35bc b6f0 c33d
00000120: 1011 423e 6ce3 e2bc fdac abbc 6d20 583e
00000130: 946f 8d3d bdb6 17bc 0797 3b3e afe8 cdbc
00000140: d319 a63c a060 7f3c ba48 74bc c1fb 0bbc
00000150: 941c 2d3d 7b22 0ebe e53a 2abe 2c02 313e
00000160: e7b7 f6bd 0d6e a53d dbce b23d 8351 8fbb
00000170: 4c7c 03be bb5a 303e 52bd d2bd f160 163b
00000180: 66d1 b43c 30d1 22be 610d b83d cb68 823d
00000190: 1d02 04be cdc8 39be bd88 883d 1027 7fbc
000001a0: 96c1 863b f84b 483d eb9a d53d f3c2 3b3e
000001b0: 97f3 f7bd 8056 20bd c29a 35be cde4 0cbe
000001c0: e4a7 073e ac29 12be f250 0abd a4c5 cfbc
000001d0: 7cdf f5bd 2a20 c93d 5386 06bd 4de9 ec3c
000001e0: dc7b 0e3e 53f7 da3d e07f 05be a694 2bbe
000001f0: 72ca f6bd c4f5 8ebd c98b 09bd a0b2 fd3c
00000200: a059 64bd 527e 26be 6043 a3bd ef19 69bb
00000210: cde6 24be 91a2 47bd ba44 2bbe eb43 063e
00000220: 72eb bcbc b3f9 163b cd4e 023d e6b6 ab3d
00000230: f439 37be 3252 a53c e6d4 8cbd 626e 02be
00000240: f27f 09be 40e9 e53d d439 e43c 6d36 2f3e
00000250: 2dda f93d fdc4 71bd b591 453e 30dc 023e
00000260: da8d f43d 276c c0bd a92a 053e 3b55 34bc
00000270: d14c d8bd 8e91 c23c 7141 9cbd 75fb 13bd
00000280: a877 0d3e f781 133c 9862 3ebc 9c05 1c3e
00000290: 969f 09bd c3c0 b1bd 96f5 d4bd 3867 493e
000002a0: f373 1b3e 5a8a 5c3d 8d99 1a3e f62c 2f3e
000002b0: d695 dd3c 619f d2bc 504a 2abd ecd1 093e
000002c0: dd55 453d 3801 6bbd 574d 1e3d 8eb8 fd3d
000002d0: f41f 3abd 49d9 3a3e 9c29 a93b 643e ca3d
000002e0: 16d4 223e 27db d33d d3b6 b4bc f37e 0ebe
000002f0: 34f1 18bd 55e2 533d ce50 cfbd 5c73 0e3e
00000300: eb55 483e 2ed9 0b3e 48a2 a03b 57d1 923d
00000310: e4c9 f33d 0645 32bd fde0 b1bd b1c9 c3bd
00000320: 01e9 19be 5585 b0bd f80f 023e 36f5 f5bd
00000330: c849 0b3e 82cd a83d 947d 03bd 9ce6 12bd
00000340: f6f5 b8bd 7195 22be 697c afbd f3df 20be
00000350: aa6a a03d 51c2 35bd 36b0 4e3d b98a 753d
00000360: 20d8 44bd ac58 543d 8e75 a73d a800 15be
00000370: 1617 4ebe 37b4 39be 8a60 0cbe 6d8c 8dbd
00000380: 212c df3c 4518 eebd 5ac6 013c 59bd 16be
00000390: 4d60 3abe 9c56 98bd 5de8 4abd 8f98 813d
000003a0: 7785 4cbe e7ad 783d 4e25 b1bc 1baa 913d
000003b0: bcbc b13d 27e1 fdbd 784f 2f3e 51f6 db3c
000003c0: 45c6 1fbe 5ddb 0e3e 0622 41bd 8d4f 163e
000003d0: 4a40 f8bd bf67 f83d 23ed e73d 85bc 9e3d
000003e0: bb2f 843d 9de9 36bd 453a 393e c099 e8bd
000003f0: d593 53be 713c 9cbd 1a82 e0bc f766 41be
-0.03227342 0.06443431 0.08455995 0.16528432 0.12443728 -0.10792399 0.11670134 -0.042414017
-0.14798477 0.025785208 -0.04543045 0.04233934 -0.06078175 -0.13445045 -0.17101897 -0.09251353
-0.22196192 0.052528955 -0.008129349 0.08025116 -0.009160709 -0.04422085 0.11404374 0.099464744
-0.12751865 0.0475651 0.07025324 0.09141336 0.047401614 0.22763984 -0.021726444 -0.019714637
0.21699502 0.13896535 0.20984688 0.124759376 -0.03297325 -0.020822033 -0.22563998 0.0056011695
0.0487483 -0.10842662 -0.2359337 -0.22781304 -0.19705956 -0.14482933 0.08693131 -0.07927764
0.00054863247 -0.0663107 -0.03605264 0.07484732 0.07024276 0.023670144 0.13938719 -0.11628948
0.049633723 -0.10980725 -0.15541494 0.09391709 0.13563287 -0.030949933 -0.0234754 -0.11391121
-0.07920557 0.053766772 0.17609496 0.057131045 0.019316621 0.13733484 -0.01109476 0.09567396
0.18951821 -0.027696334 -0.02095651 0.2110612 0.069060475 -0.009259877 0.18319331 -0.025135366
0.020275986 0.015587002 -0.0149099175 -0.0085439095 0.042263582 -0.13880341 -0.16624029 0.17285985
-0.12046795 0.08077631 0.08730861 -0.0043737306 -0.12840384 0.17222111 -0.10290016 0.0022945965
0.022072505 -0.15900111 0.08986927 0.06367644 -0.12891431 -0.18143006 0.06666706 -0.015573278
0.0041124327 0.048900574 0.10429939 0.18336086 -0.12107008 -0.039144993 -0.17734817 -0.13759156
0.13247639 -0.14273709 -0.0337686 -0.025362797 -0.12005517 0.09820588 -0.032842945 0.02891984
0.13914436 0.106917046 -0.13037062 -0.16755924 -0.12050332 -0.0698047 -0.033580575 0.030968964
-0.055749536 -0.16259125 -0.07971835 -0.0035568436 -0.16103669 -0.04873902 -0.16725436 0.13111846
-0.023061488 0.0023037016 0.03181343 0.083844945 -0.17893201 0.020180795 -0.06876545 -0.1273742
-0.13427714 0.112261295 0.027859606 0.17110606 0.12199817 -0.059025753 0.19293864 0.12779307
0.119411185 -0.093956284 0.13004555 -0.011006649 -0.105615266 0.023751047 -0.076296695 -0.03612848
0.13815176 0.009003154 -0.011620186 0.15236515 -0.03359946 -0.086793445 -0.10398404 0.19668281
0.1518095 0.05384288 0.15097637 0.17106995 0.027048986 -0.025710763 -0.041574776 0.13458985
0.04817759 -0.05737421 0.038647976 0.12388717 -0.04544063 0.1824695 0.005162431 0.09875181
0.15901217 0.10344534 -0.022059834 -0.13915615 -0.037339404 0.05172952 -0.10122834 0.13911194
0.19564025 0.13657066 0.004902158 0.07168835 0.11903742 -0.043522857 -0.08685491 -0.09559954
-0.1503029 -0.08619181 0.12701404 -0.12009661 0.13602364 0.082423225 -0.032102183 -0.035864457
-0.09031288 -0.1587732 -0.08568651 -0.1571043 0.078328446 -0.044374768 0.050461017 0.05994675
-0.048057675 0.051842377 0.08176719 -0.14551032 -0.20125994 -0.18135153 -0.13708702 -0.0691155
0.027242722 -0.11625723 0.007920826 -0.14720668 -0.18200798 -0.074383944 -0.049538005 0.06327926
-0.19972788 0.06071272 -0.021624234 0.07112523 0.08678576 -0.1239646 0.17120159 0.026850851
-0.15602978 0.13950868 -0.047151588 0.14678784 -0.12121637 0.12129163 0.11324527 0.07750801
0.06454416 -0.044656385 0.18088634 -0.113574505 -0.20661862 -0.07628716 -0.027405787 -0.18886934

conv_layers.0.bias f4 [32]
00000000: 0527 1dbd 21ec 17bd e3e5 e43d 60f6 9ebd
00000010: 834c 13be 8526 78bd e081 2a3e 204d 69bc
00000020: be06 0f3e eef5 bdbd 522b 0c3e fc7a 64bd
00000030: f2eb 0f3d f255 41bd fe7d c63d 3bf7 793e
00000040: 8834 a23d 458d 51be cc2e 83bd aced 23be
00000050: 7f9e e8bd 4f71 2ebe d453 353e 9d6b 4abd
00000060: ff4a 33bc f299 06bd 0efa f53d d0d7 f33d
00000070: fe6e dfbc b9fe 583d f6bf 993c f4eb 0dbe
-0.03836729 -0.037090424 0.1117666 -0.07761836 -0.14384656 -0.06058361 0.16651106 -0.014239579
0.13967416 -0.09275423 0.136884 -0.05578135 0.035137124 -0.047201104 0.09692 0.24410717
0.07920176 -0.20464046 -0.0640541 -0.16008633 -0.11358356 -0.17035411 0.17707759 -0.049419034
-0.010943173 -0.032861657 0.12010585 0.11906397 -0.027274605 0.052977297 0.018768292 -0.1385954

conv_layers.3.weight f4 [64, 32, 3, 3]
00000000: 2695 6fbc 5f7a 53bd da64 913c 6ad6 a63c
00000010: 8f53 9d3c 8cb9 2abb a7d2 933b b1ab e83c
00000020: c417 1cbd 833a 2cbd ead1 b7bb 902f 10bd
00000030: 63c5 13bd 0a7c b13c 435a 8f3c a106 0ebc
00000040: c53a 1f3d 7de9 153c 9c4c 35bc 4201 523d
00000050: 8a0b abbc 93aa fcbb 60b8 a63c 4556 3c3d
00000060: 9e84 9b3c 6c46 083c 5b63 8b3c 7049 74bc
00000070: 779c 10bd 650b 893c 162d 013b 376d 433d
00000080: 816c 4cbd 5cd1 113d 3378 8a39 dbf1 293d
00000090: 6df6 17bd 73a7 1abd a20b 673c 0094 1b3d
000000a0: a4c9 8fbc 60f8 1cbd 6292 9d3b 47a8 91bc
000000b0: f38d 403d a08c 2cbd 6dee 7abc d200 21ba
000000c0: 729e ce3c 42cf a2bc ec70 d9bc 6d88 00bd
000000d0: 18d5 2ebd 560a 2abd 6ee8 053d 56c9 cb3c
000000e0: b62c 503d aeb7 573d 6451 4f3d 55d1 ba3c
000000f0: 922f 69bc a314 13bd 9c08 20bc 4387 57bd
00000100: b716 873c b5ea 313d 8225 0abc 8662 1d3d
00000110: 3c47 04bd 7342 a3bc 5a4c 8b3c 176b 50bd
00000120: 0b4a 693c 7b80 333d 2e20 3fbd ff02 6abc
00000130: a262 9bbb f173 9ebc 9adc 593b 3af7 6c3d
00000140: f535 373d 71ad 303d 1746 07bc 73dd 62bd
00000150: 3ce8 f63b 4022 4ebd 9a24 4e3b 2dfc 12bc
00000160: 09da 4fbd 0aff 713c 42ac 5e3d 1ab4 04bd
00000170: b43b 0ebd 66fc da3c e201 603d c213 1c3a
00000180: f8f5 093d b67b 3a3d ef25 603d d93c cfbb
00000190: 1e1d 013d 7bac 8fbc 64d3 0a3d 5c1c be3c
000001a0: d7d6 a2bc e893 053d a5b8 af3b bb69 4cbc
000001b0: ee2b 3e3d 901a 07bd eb99 20bd ecac c1bc
000001c0: 24f7 48bd 987d 6fbc f291 093d 7cee 54bb
000001d0: a03b 0c3d e665 203d 547f 89bc 2fb5 0cbd
000001e0: 2afa fcbc bd2d 533d ed7a edbc c261 543b
000001f0: 6e5b c1bc f44e 383d ae69 97bc c995 ca3c
00000200: 8aa8 4dbd 6691 0e3d 8cd7 4d3d cf68 0dbd
00000210: 1363 ecbc 423b 19bd 4c4c 523d a7d8 193d
00000220: a578 85bb ad68 92bc c34a 123c c42c ea3c
00000230: 6ac2 803c 0144 0bbd 88c0 26bd 96ef 43bd
00000240: 4355 27bd 008f b2bc 2b76 8d3c e98c 943c
00000250: 3090 153d 5a3f 383d 369e 4e3d f645 17bd
00000260: 24d2 84bc 055e 013c 2ab3 01bd 5240 2c3d
00000270: 69da 123d 64d8 8a3c 5b09 40bd 1ca9 2abd
00000280: 05cd 113d 8322 f03c 9865 50bd 1b02 043d
00000290: a51d 17bd f357 153d d833 acba 1a83 40bc
000002a0: 9e5e 53bd 7522 253d 4192 36bd 2300 05bd
000002b0: 3e58 d93c 24d0 143d 35e8 153b ec2f 213c
000002c0: 9a5f 53bd b6e2 303c 76dc fe3b dc25 db3c
000002d0: 6627 b4bc b176 11bc 3cd2 5d3d c441 1e3d
000002e0: 5cb8 e6bc 705f e83c b715 cdbc 9b45 3dbc
000002f0: 602c e1bc 5bf9 1b3d d1bd 5037 a550 3d3b
00000300: 62bf d4bc 200c 043c e887 6abd 07f1 22bc
00000310: f27c a4bc 4464 99bb 6d68 14bc 389c 84bc
00000320: 5278 063d d5df db3c 03ca 9e3c faec 6a3d
00000330: 1bf7 e5bc b015 b9bc fa58 ac3c ee26 073d
00000340: 5a20 683d 1a30 783d 382a 033d 6fe9 05bc
00000350: 76bf 27bd 4e5d 6ebc ebfc 43bd abd5 5b3d
00000360: 088d dabc 8309 f4bc 919e 223c 7d52 4bbd
00000370: 6a1b dd3c fc32 613c 25ad 093d 0956 e9bc
00000380: 2d78 49bd 6785 17bd f4b2 a53c d202 d93c
00000390: e673 3bbd b47d a9b9 580b ad3c ef90 07bc
000003a0: 1731 723c 2440 573d e918 a13b f846 79bb
000003b0: c2a7 0abd 00f0 203d 7eb2 033d f65e a83c
000003c0: f60d 943c 7961 413c 0935 febc de06 d03b
000003d0: fd25 44bc a38f a9bc 289a 91bb 56f5 a1bc
000003e0: 7a7e 83ba 14a4 0dbd 6a23 fa3c 16be 3d3d
000003f0: f31e 2ebd 295e d63c c079 f73c d2ce 333d
-0.014622962 -0.051630374 0.017748285 0.020365912 0.019204883 -0.0026050536 0.0045111957 0.028402181
-0.038108602 -0.04204799 -0.0056097405 -0.03520161 -0.036076915 0.021665592 0.017499095 -0.008668573
0.038874406 0.009149906 -0.011065628 0.05127073 -0.020879526 -0.0077107637 0.020351589 0.04598071
0.018984135 0.008317571 0.01701515 -0.014910087 -0.035305467 0.016729066 0.0019710711 0.047711577
-0.049908165 0.03560005 0.00026410967 0.041490417 -0.037100244 -0.03775735 0.014101895 0.03798294
-0.017552204 -0.038322806 0.00480871 -0.017780436 0.047010373 -0.042126298 -0.015315634 -0.0006141785
0.025222037 -0.019874219 -0.026543103 -0.031380106 -0.04268369 -0.041513763 0.032692365 0.024876278
0.05082389 0.052665405 0.05061473 0.022804895 -0.014232533 -0.035908353 -0.009767678 -0.05261923
0.016490323 0.043436725 -0.008431794 0.038424037 -0.032294497 -0.019929146 0.01700418 -0.05088338
0.014238845 0.0438237 -0.04666155 -0.014282941 -0.0047419826 -0.019342395 0.003324306 0.05785296
0.04472919 0.043134157 -0.008256457 -0.05538697 0.0075350087 -0.050325632 0.0031454922 -0.008971256
-0.050745044 0.014770279 0.054363497 -0.03239832 -0.034724906 0.026731681 0.054689296 0.0005953872
0.03368184 0.045528136 0.054723676 -0.0063243923 0.03152191 -0.0175383 0.033893004 0.023206882
-0.019877834 0.032611758 0.0053625875 -0.01247638 0.046428613 -0.032984316 -0.039209288 -0.023642026
-0.049063817 -0.014617346 0.03358645 -0.003249078 0.03423655 0.039159678 -0.016784348 -0.034352478
-0.030881006 0.05155729 -0.02898928 0.00324069 -0.023603167 0.04499717 -0.01848301 0.024729626
-0.05020956 0.03480663 0.05025439 -0.03452378 -0.028855836 -0.03741003 0.051342294 0.03756013
-0.00407322 -0.017872179 0.008928957 0.028585799 0.015717704 -0.0340004 -0.040710956 -0.04783591
-0.040852796 -0.021796703 0.017268261 0.018133597 0.03651446 0.04498229 0.05044385 -0.036931954
-0.016213484 0.007895951 -0.031665005 0.042053528 0.035852823 0.016948886 -0.046883922 -0.04166518
0.035595912 0.029313331 -0.050878137 0.03222857 -0.036893506 0.036460828 -0.0013138009 -0.011750007
-0.051603906 0.040316064 -0.044573072 -0.032470834 0.026531335 0.03633131 0.0022874002 0.009838086
-0.051604845 0.01079624 0.007777746 0.026751451 -0.021991443 -0.008878396 0.054155573 0.038636938
-0.028164081 0.02836582 -0.025034769 -0.01155224 -0.02748698 0.0380796 1.2441961e-05 0.002888718
-0.025970165 0.008059531 -0.057258517 -0.009945161 -0.02007911 -0.004681142 -0.0090581 -0.016187772
0.03282959 0.02684013 0.019383436 0.057354905 -0.02807193 -0.02259335 0.021038521 0.03299611
0.056671478 0.06059275 0.032022685 -0.008173331 -0.040954076 -0.014548613 -0.047848623 0.053670567
-0.026678577 -0.029789692 0.0099255005 -0.049639214 0.026990611 0.013745066 0.03361239 -0.028483408
-0.049186874 -0.036992457 0.020226933 0.026490603 -0.045764826 -0.00032327848 0.021123573 -0.008274301
0.014782212 0.052551404 0.0049162996 -0.0038036685 -0.033851393 0.03929138 0.032152645 0.020553093
0.018073063 0.011803024 -0.031031149 0.006348475 -0.011971948 -0.020698374 -0.0044434257 -0.019770306
-0.00100322 -0.034580305 0.030534465 0.04632386 -0.042509984 0.026167946 0.030209422 0.04389841

conv_layers.3.bias f4 [64]
00000000: 2640 a73c 5929 823c 94b5 693d 2b1e 013d
00000010: 5e3a 81bc 40bc a6bb 1c12 10bd 77ac c13c
00000020: 4605 10bd 2a01 5f3c 2df7 143d d74a edbc
00000030: 9a9c 34bc 9f4f b33b 5546 59bc ad3f abbc
00000040: a46b 26bd e10c 8b3d b1b0 cfbc 63a3 623b
00000050: 5a45 ff3b 68f3 18bd 4e90 133c d7d2 313d
00000060: 911a 33bd 66d9 7fbc ba5f 5abc 71d1 c33c
00000070: 8dc6 9a3d a01d 0b3d 6317 5c3d 8d8b b63c
00000080: 1d56 c6bc 4a7b 7abd d99b acbb 0e96 003c
00000090: 86de 13bd 13ea 583d 5086 88bd 861a ff3c
000000a0: a7b7 48bc de70 e4bc a643 8f3d bf89 7c3d
000000b0: c555 303d eb7a a3bc c880 b4bc 919b 073c
000000c0: 06b4 943c 8368 21bc b672 813d 297e 4e3d
000000d0: 78a1 a8bc 901c 34bd 589a d73b a9f5 1fbd
000000e0: 9298 5abd 8b3a 523c 1cc5 15ba 970e 39bd
000000f0: 5045 dbbc 6415 ea3c 97a8 833c deb6 97b8
0.02041633 0.015888857 0.057057932 0.03152291 -0.015774902 -0.005088359 -0.03517352 0.023641808
-0.03516128 0.013611117 0.036368538 -0.02896635 -0.011023665 0.005472138 -0.013261397 -0.020904386
-0.040629998 0.06789566 -0.025352808 0.003458225 0.00779025 -0.037341505 0.009006573 0.043413963
-0.043726508 -0.015615797 -0.013328487 0.02390358 0.07557402 0.0339638 0.05373324 0.02228334
-0.024210984 -0.061152734 -0.005267602 0.007848276 -0.036100887 0.052957606 -0.06666243 0.031140577
-0.012250817 -0.02788585 0.06995325 0.061654802 0.043050546 -0.019956073 -0.022034064 0.008276836
0.018152248 -0.009851578 0.063207075 0.050413284 -0.020584807 -0.04397255 0.0065796785 -0.03905264
-0.05336816 0.012831341 -0.00057132705 -0.04517993 -0.02676645 0.028574653 0.0160716 -7.234303e-05

conv_layers.6.weight f4 [128, 64, 3, 3]
00000000: f534 ba3c 81a8 82bb 12bd f53c 6d7b c23c
00000010: a48c ecbc 4ce4 993c eed9 8abc de06 a13a
00000020: 5f86 8abc 75b3 19bd 4c80 0abd caeb 91bc
00000030: a96e 89ba fdf1 19bb 8013 d93c 6ed7 143d
00000040: 1e86 273c e23f a7bc 2d3d 64bc 3266 0c3d
00000050: 4e11 0a3d 309e 8abc b11f d63c 1a8a 98bc
00000060: 4a0c 123d adf4 b1bc 94d9 a9bc eedc 24ba
00000070: d2c3 a33c c670 9d3c 23c7 c73c 4c1c 90bc
00000080: e787 09bd 576a c13c d950 14bd 7b71 ac3b
00000090: 5fe4 1fbd e69f 5bbc a1d5 c9bb 4dc2 2d3c
000000a0: 360c 10bd 20ea 253c 07be 21bc 5cdb 14bd
000000b0: b723 a3bc 7abe 84bc 891b 17bd 9d57 d83c
000000c0: f1e9 ce3c f521 0ebd 5270 c53b f3f1 08bd
000000d0: fbab 6e3b 2230 8e3c 19fb 7e3c ec25 92bc
000000e0: d328 88bc 2b77 a2bc f97e 6a3c 9d72 08bb
000000f0: 8168 243d 21f1 e4bb 0990 bb3c ec79 1e3c
00000100: 5895 af3b 4e2f eabc 632b f33c 15b3 dc3c
00000110: 4694 a2bb b729 7aba a000 143d ff64 593b
00000120: 3a81 f43a 08e4 d6bb cb2d 07bd 3927 063b
00000130: 6eab 353d a766 8e3c ef37 efbc a906 debc
00000140: 56b2 52ba db71 19bb 5c51 033d 6d03 ca3c
00000150: 6e98 35bb a519 58bb ebeb 76ba cead 533c
00000160: a6db fdbc aff6 643a 6364 81bc 079e 16bd
00000170: 4e91 9bbb 277a 01bd ef0d 113d 07a4 4fbc
00000180: e893 2a3c 05ba 633c 5d69 a93c b311 4fbc
00000190: 82e5 7cbc 6f34 063d 5d33 b73c 034e ab3c
000001a0: 99e9 bf3b 5638 4cbc fb01 88bc 6d43 75bc
000001b0: a5a1 8fbc 815d b43c 4910 9cbc fcfa a63c
000001c0: 2b97 963c b6e7 063d 932c 53bc a723 86bc
000001d0: 3fc8 863b 3c47 5abc 1e81 053d e20d cd3c
000001e0: ee94 f43c dc5a cdbb 21ed 31bc c394 e63b
000001f0: 7bcf b0bc 5313 fe3c 6527 693c 688f 9c3c
00000200: a9fb 483c 1b7f f13b 2c09 603c 40f1 5739
00000210: 4009 15bd d4cb c4bc 9d9b 863b dd2a a1bc
00000220: 8fa0 e43c 63b8 4bbc 19c4 21bc 5000 17bc
00000230: a99d f4bc 8f5e 45bc f1cd ecbc 16c5 0cbd
00000240: 591a afbb 3fcd 043d d0bb b1bc e844 313d
00000250: 232b 95bc 2d2d f53c 9392 473c 2c31 213c
00000260: a38a f0b8 9996 d33c c216 20bb d940 2b3c
00000270: 6fdd d23c 1dce e4bb a501 a5bc 5141 0ebd
00000280: 2d13 2e3a c1d4 db3c 72c3 493c abad 523c
00000290: 7381 203d ec30 093d 067f 1f3d 6ba9 aa3b
000002a0: f14d 94bc 9c18 7abc 9f11 febc 420c 763b
000002b0: d857 033c 7cf3 45bd 44e7 823c e0ea 90bc
000002c0: ba67 1ebd 3fd7 c93a dc29 b8bc c0d7 dcbb
000002d0: a7b5 83bc ec44 263c b6af 0d3d 821c 2abc
000002e0: 7f4b 13bd 1f48 bc3c 352b ebbc bad1 933a
000002f0: 3e4a 09ba 4b60 d7bc 9faa 03bd d1b4 ecbc
00000300: 684a fc3c e44d 213c ef9d 5fbc 3c9a 7f3c
00000310: 5102 1a3c bb4b 6d3b 9173 9ebc ee75 efbc
00000320: 8487 81bb c9cb 13bc df48 0e3d 64c9 ddbb
00000330: b1ee a43c ff9d e1bb a90b c03c 4f28 95bc
00000340: f82d 9c3c 3548 05bd b09f 1bbb d19e 9d3c
00000350: 73e2 25bc 9c8f 973b 7fee d83c 5043 23bc
00000360: 448e 09bd 51c3 6dbc 7574 af3c 1927 e9bc
00000370: d899 4c3c 1506 a6bc 0aef 1b3d a95c 943c
00000380: 4ec4 3d3c a8ac 4b3c 2296 3cbc b37b 153d
00000390: 8757 8cbc 7cd2 d83c db2c 0a3d 9426 6abb
000003a0: 74e6 70ba 6858 9dbc b4fa 573c 0189 3ebc
000003b0: 304a f4bc 7dc8 91ba 960d b5ba 33cc 5d3c
000003c0: aefa 7e3b b924 753c 024f dcbc 72d2 a1ba
000003d0: 3a8d 673c 3f8e 1f3d 2e24 09bd 75dd 0cbc
000003e0: feba e3bc 5b24 9f3a c429 873c 5b44 79bb
000003f0: 6098 abbb b08e 4dbc 7cb2 aa3a 9f5a c1bc
0.02273033 -0.0039873724 0.029997382 0.023740495 -0.028875656 0.018785618 -0.01694962 0.0012285372
-0.016909776 -0.03752466 -0.03381376 -0.017812628 -0.001048525 -0.0023490184 0.026498556 0.036338262
0.010224847 -0.020416204 -0.013930601 0.03427715 0.03370791 -0.016921133 0.026138159 -0.01862054
0.03565625 -0.021723116 -0.020733632 -0.00062890246 0.019990835 0.019218814 0.024386948 -0.017591618
-0.033576872 0.023610277 -0.036209915 0.0052625514 -0.03903615 -0.013404822 -0.0061594998 0.010605407
-0.035167895 0.0101266205 -0.009871966 -0.03634201 -0.019914491 -0.016204108 -0.036891494 0.026408965
0.025258036 -0.034700353 0.0060253525 -0.033433866 0.0036418426 0.017356936 0.015562796 -0.017840348
-0.016621029 -0.019832214 0.014312499 -0.0020820268 0.040138725 -0.0069867526 0.02289583 0.009672623
0.0053583793 -0.02858701 0.029683774 0.026940862 -0.004961523 -0.0009542959 0.03613341 0.003317177
0.0018654235 -0.006557945 -0.033002656 0.0020470156 0.04435294 0.017382933 -0.029201476 -0.027102785
-0.00080374384 -0.002341381 0.032060012 0.024659837 -0.0027709263 -0.003297427 -0.000941931 0.012919856
-0.030988526 0.00087342685 -0.015794938 -0.0367718 -0.0047475463 -0.031610634 0.03541368 -0.0126733845
0.01041124 0.013899331 0.020680124 -0.012638497 -0.015435578 0.03276485 0.02236336 0.020911222
0.0058567044 -0.012464603 -0.016602507 -0.014969689 -0.017533133 0.022017242 -0.019050734 0.02038335
0.01838263 0.03293582 -0.012889045 -0.016374422 0.0041132267 -0.013322648 0.03259384 0.025031034
0.029856171 -0.006266935 -0.010859759 0.0070367767 -0.02158331 0.031015074 0.014230584 0.01911135
0.012267032 0.0073698885 0.013674062 0.0002059387 -0.036385775 -0.024022974 0.004107906 -0.01967376
0.027908592 -0.012434098 -0.0098734135 -0.009216383 -0.029860334 -0.01204647 -0.028906794 -0.034367643
-0.005343717 0.0324223 -0.021696001 0.043278605 -0.018209046 0.029928768 0.012180942 0.009838384
-0.00011469915 0.025828646 -0.0024427627 0.010452473 0.025740353 -0.0069825784 -0.020142386 -0.03473026
0.00066404307 0.026834847 0.012314664 0.0128587885 0.039185952 0.03349392 0.0389395 0.0052081845
-0.018103572 -0.015264656 -0.031014262 0.0037543927 0.008016549 -0.048327908 0.015979417 -0.017690122
-0.03867314 0.0015399231 -0.022480898 -0.0067395866 -0.01607783 0.010148268 0.0345914 -0.010382773
-0.03596067 0.022983609 -0.028707126 0.0011277713 -0.0005237198 -0.026291033 -0.03214514 -0.028894814
0.030797198 0.009845231 -0.013648494 0.015600737 0.009399966 0.003620847 -0.019342216 -0.029231038
-0.0039529223 -0.009020754 0.034737464 -0.0067683924 0.020133348 -0.0068852897 0.02344306 -0.018207697
0.019064888 -0.032539565 -0.0023746304 0.019240769 -0.0101247905 0.004625274 0.026480911 -0.009964779
-0.03358294 -0.014511899 0.021417836 -0.028461026 0.012487851 -0.020266572 0.038069762 0.01811059
0.011582447 0.012431301 -0.011510404 0.036494922 -0.01713158 0.026467554 0.033734184 -0.003572856
-0.00091896136 -0.019207194 0.013182331 -0.011629344 -0.029820532 -0.0011122372 -0.0013813253 0.013537454
0.003890674 0.014962369 -0.026893143 -0.0012346043 0.014132792 0.038954016 -0.03348177 -0.008597721
-0.027799126 0.0012141572 0.016499408 -0.0038035128 -0.0052366704 -0.012546226 0.0013023163 -0.023602782

conv_layers.6.bias f4 [128]
00000000: 9231 ac3a 6cbd c63c a9c7 dc3b ff37 bc3c
00000010: 240d 9bbc fa81 28bd ba8f 06bd cc79 e7bc
00000020: 5ffc 15bc 40f0 ddbb 24ef cebb 6724 98bc
00000030: 79a0 9e3c a126 bb3c f62f 433c 0d75 403a
00000040: 35e2 7ebc e59c 99bc bd2e 26bd 27c4 6ebb
00000050: d824 20bc adf6 8dbd d84e 9abc 9075 cb3b
00000060: 9aa8 44bd ab14 c23c 4ea7 b93c a8f9 653c
00000070: 9de1 d5bc 24e4 57bb 75b2 6dbc a0e2 4dbc
00000080: ec0a 87bc f7b2 033d 1d54 ba3c 8589 ac3c
00000090: 3777 d53c 5043 113b b41c 9c3c fc47 22bc
000000a0: 263c 2ebc a1d7 95bb d187 d4bb 3f6f 38bc
000000b0: 4e39 84bc 365b 623c 2b05 c23b ef1b b43c
000000c0: 7280 483b 7616 3abc 7a85 c33c 0fda 7ebd
000000d0: c495 e8bc a507 273c 1f56 dc3c 1950 d93c
000000e0: ef8f dbbc b846 13bd 052d d73c 7124 473c
000000f0: 4575 cfbc 0aec 80bc 59b3 6fbc 3d67 2fbd
00000100: c55f 833c 4cfb f4bc 770a cebc c812 fd3c
00000110: 0a0b 8bbb 98de 04bd 7940 143b 55c9 f9bc
00000120: ac28 c3bb 4b0a 43bc 637f e9bc 1ecd ef3c
00000130: d0c6 8bbc 7719 583b 14f4 1d3d 3f10 02bd
00000140: 4c47 b2bc f3ad 63bd 6078 923a 177f a23c
00000150: 4ffa fbbc bfbe d43c c90d 223d 4f7e ebbc
00000160: 6242 e93c 7c56 f8bc efc1 83bc a60c 983b
00000170: a6d8 06bd b115 f13b 12ed 1d3a 6809 3f3d
00000180: dc17 6abc 19f1 70bc 68c6 f53c 5f69 e7bb
00000190: 6ba8 18bd 0ad1 1fba 4f42 b03c 8654 bcbc
000001a0: 2c13 c5bc 3a3c 4a3c a6ad f83c 9390 15bd
000001b0: 6ea5 c23c 44fc 1cbd 3df6 f9bc 1f7a 8ebc
000001c0: 8b46 b3bc 1cda e13c c227 0e3d 726c cebc
000001d0: 31db da38 aa14 1abd caa0 ff3c 4005 9a3b
000001e0: 0ce2 1dbd d257 0ebd 81d4 063b 9d03 223d
000001f0: 10e9 c33b ec46 94bc b496 723b 91f4 1cbd
0.0013137332 0.024260245 0.0067376685 0.02297592 -0.018927164 -0.04113958 -0.032851912 -0.02825632
-0.009154408 -0.006773025 -0.006315129 -0.018572045 0.019363629 0.022845568 0.01191329 0.00073416607
-0.015556862 -0.018751571 -0.040571917 -0.0036432834 -0.009774409 -0.06931815 -0.018836424 0.006209083
-0.048012353 0.023691496 0.022662785 0.0140365735 -0.026108557 -0.003294238 -0.0145078795 -0.012566239
-0.0164847 0.032153096 0.022745186 0.021061668 0.026057823 0.0022165366 0.019056655 -0.009904858
-0.010634458 -0.004572824 -0.006485917 -0.011256992 -0.016140606 0.013815692 0.005921026 0.021985976
0.0030594137 -0.011357894 0.023867358 -0.062219676 -0.028391726 0.010194694 0.026896534 0.026527451
-0.026802031 -0.035956115 0.026266584 0.012154684 -0.025324473 -0.015737552 -0.014630162 -0.042823065
0.016036877 -0.029904984 -0.025151474 0.030892745 -0.0042432593 -0.032438844 0.0022621437 -0.03049151
-0.005955776 -0.0119043095 -0.028503126 0.029272612 -0.017062575 0.0032974163 0.03856285 -0.031753775
-0.021762513 -0.055585813 0.001117479 0.019835992 -0.030759005 0.025969861 0.039563928 -0.028746752
0.028474037 -0.030314676 -0.016083686 0.0046401797 -0.032921456 0.007357322 0.0006024401 0.04663983
-0.014287915 -0.01470592 0.030001834 -0.0070621218 -0.03726999 -0.0006096518 0.021515993 -0.022989523
-0.024056993 0.012343461 0.03035624 -0.03651483 0.023760524 -0.038326517 -0.030512923 -0.017392216
-0.021884223 0.027569823 0.034705885 -0.025198195 0.000104358776 -0.037617363 0.0312046 0.004700333
-0.038545653 -0.03475172 0.002057344 0.039554227 0.005978711 -0.018100224 0.0037016096 -0.038319174

linear_layer.weight f4 [5, 3200]
00000000: 0ca1 1f3c b33c 1a3c 5f63 283c 28c7 b6bc
00000010: 0c16 22bc d45b 3c3b 723b 8bbc 7ca1 edbb
00000020: 6957 b6bc 29fe 80ba 7e5c b83c eb5f 473c
00000030: 2e1c 733b d151 1e3c 3cc9 c03b 9f0f 4e3c
00000040: 2b29 13bc 3af3 c8bb 45d2 46bc 73fe 9e3b
00000050: 223f 4ebc 06e4 153c eed3 003d 7a5e 5f3c
00000060: 98f9 e73c 7d70 b73b 2fd1 e73c 70f3 fc3b
00000070: f205 0db9 79f4 0b3c 4a13 773b 2830 643b
00000080: 50a8 f43b e9a7 a23c 6dcd 79bc 8ac2 09bb
00000090: eca0 cfbc e132 593c 6078 b53b fd00 e0bc
000000a0: e98e 143c 2110 943c 428a 803c 7c32 003c
000000b0: af48 f2bb b62f 05bc c330 97bc 64e2 38bc
000000c0: a24c 1fbb 3d92 693c e96b 5f3b d043 e0bb
000000d0: f2ef 113c 107f 8d3c 29a5 c5bb 1cb2 26bc
000000e0: ea69 ee3b 016c 6ebc 3008 dd3c 39f8 0bbc
000000f0: 41c1 72bc b42b 70bc 301b 3bbd 8687 05bb
00000100: 61ba 0b3c c230 933b 63f4 48bc 8a23 04bc
00000110: 1bb5 43bc 45e0 433c 454e 4dbb 69d2 163c
00000120: 610f 903b d3bf 0f3d 8ca6 b13b 0d81 b93c
00000130: 8ab4 a13a 180f af3b 338e a73c 5f19 9abc
00000140: 6c8d 9a3c d3e2 1c3c 80ff a93c bbb2 033d
00000150: 3b97 edbb 4e2f 7ebc 8dcd e53b 8e70 51bc
00000160: e63c 033c 72af fbbb 65a3 1739 d72f 2ebb
00000170: 694e a83b 510e 3bbc 33bd 043c e60a 57bb
00000180: 5845 0b3b de29 8ebc 3246 2a3c e663 44bc
00000190: 89d5 193c 4cca 1d3c f5a1 3e3b 44e5 2bbc
000001a0: add3 3ebd 650c 54bb 29a2 823a 72a6 b43c
000001b0: 234c 523b d0d8 d7bc c64a 8dbc f804 853c
000001c0: 554d 023c 406e 2abc 2086 8fbb 66e2 06bc
000001d0: 0052 5a3c 9690 c2bc 7237 f5bc 8205 a93c
000001e0: 78b4 4c3a 59f9 15bd 5193 8b3b 4050 b9bc
000001f0: 97ca e63c d6c8 ff3b 187b c9bb 4b25 27bd
00000200: e5d6 2cbc 8eed 23b9 6025 33bc 64bc 1abc
00000210: cb1e b2bc c837 92bc dcd3 cbbc 567f a2ba
00000220: 4450 c6bb 6d61 5f3c 966c 6e3c 5814 f83c
00000230: 393d ee3b 7902 31bb 5111 4dbc 8e31 3b3c
00000240: 72c3 9fbb b437 c2bc c9c5 7aba a430 86bc
00000250: 71d3 7c3c a343 823c abb9 4abc 2010 11bd
00000260: 6d5c f9bc 1a64 62bd 079f b0bc 5626 90ba
00000270: d363 c3bc b35b 8ebd 0b52 85bd 0a51 41bc
00000280: bb95 86bc 8600 01bc bb28 113d 97f3 833d
00000290: 0394 8a3d a2cf 10bd 7e42 5a3c 16e3 fabb
000002a0: 4a95 493d d962 213d 8fef 43bd 042e 073d
000002b0: 40f5 083d 8b00 e83c c38b 1e3d 242d 8e3b
000002c0: 652f 36bc 2605 eeba 0e4b a9bc 577b abbb
000002d0: a4cd 2439 8fa3 c5bc 0595 54bc 6d64 a7bc
000002e0: 04bc 89bc 57c3 5bbc ce24 203c 911e 1e3c
000002f0: 4e35 e13b 6df5 ac3c 738f 3fbc e64f 913b
00000300: 840c 1a3c 31e2 cb3b 7bdd 583c 5a16 61bb
00000310: d728 463a 6d12 693c 72cb 8eba 3a9a 0e3c
00000320: 7da7 2cbc 3245 2dbc 5e91 253c e899 debb
00000330: 8527 9bbb 4e10 46bc 39da 213c 4f2b 2dbb
00000340: 9956 633c 6b8b 3fbb 975f b7bb e1d7 85bb
00000350: 9e4e f13b 874f df3b d8d7 7fbb 59f7 f93b
00000360: 7e27 3abc 7b58 7bbc c5f5 89bb 8a7a 79bc
00000370: 1428 a8bb ff38 de3b b79b 0fbc 4a84 7abc
00000380: 5d3d 393c f921 e63b bebe 61bc 13ee 88bc
00000390: 2717 8bbc 5594 763c a5d7 143c c43f 7ebb
000003a0: f9a3 cdbc e472 02bd ea8d 01bd 798a 1cbc
000003b0: a523 8bbb c9e8 863c 969e 8d3b 24d4 8ebb
000003c0: 4749 68bc c21b e8bb fde4 6a3c a6d4 833c
000003d0: 61a0 983c e727 1cbc 0759 44bc 132b e13c
000003e0: 1b2d c7ba f388 73bb de50 4f3c 5224 d5ba
000003f0: 0c12 09ba 84cf d7bb 1fc3 a13c c544 b83c
0.009742986 0.009413886 0.010277598 -0.022311762 -0.009892952 0.0028741257 -0.01699612 -0.0072519165
-0.022258477 -0.0009841371 0.022505041 0.012168865 0.0037095654 0.009663061 0.005883364 0.012576967
-0.008981983 -0.0061325105 -0.012135093 0.00485211 -0.012588294 0.009148603 0.031452112 0.013633365
0.028317258 0.0055981264 0.028297989 0.0077194497 -0.00013449023 0.008542174 0.0037700706 0.0034818742
0.0074663535 0.019855456 -0.015246731 -0.0021020495 -0.025345288 0.013256759 0.0055380315 -0.027344221
0.009067276 0.018074097 0.015690926 0.007824536 -0.0073939185 -0.008129051 -0.018455869 -0.0112844445
-0.0024307151 0.014256057 0.003409142 -0.0068440214 0.008907305 0.017272502 -0.0060316515 -0.0101743005
0.0072758095 -0.014552117 0.026981443 -0.008543068 -0.014816583 -0.014658857 -0.045680225 -0.0020374968
0.008528323 0.0044918964 -0.012265298 -0.008065114 -0.011945034 0.0119553255 -0.003132717 0.009205439
0.0043963646 0.035095047 0.0054214653 0.022644544 0.001233713 0.0053423755 0.020453548 -0.018810926
0.018866263 0.0095755635 0.020751715 0.032152873 -0.007250694 -0.015514208 0.007013029 -0.012783183
0.008010125 -0.007680827 0.00014461351 -0.0026578808 0.0051363003 -0.0114169875 0.008101749 -0.0032812892
0.002125105 -0.017353948 0.010392712 -0.011986708 0.00938929 0.009630751 0.0029088233 -0.010491673
-0.04658859 -0.003235602 0.000996654 0.022052024 0.0032088838 -0.026348501 -0.017247569 0.01623772
0.007953008 -0.010402262 -0.0043800026 -0.0082326885 0.013325214 -0.023750585 -0.029933665 0.02063251
0.00078088744 -0.03661475 0.004259505 -0.022621274 0.028172774 0.007805924 -0.006148707 -0.04080705
-0.010549282 -0.00015633387 -0.010934204 -0.00944433 -0.021743199 -0.017848864 -0.024881296 -0.0012397568
-0.006052049 0.013634068 0.014552256 0.030283138 0.007270482 -0.002700953 -0.012516336 0.011425389
-0.004875594 -0.023708202 -0.00095662154 -0.016380616 0.015431271 0.015901392 -0.012373368 -0.03541577
-0.03043958 -0.055271246 -0.021560205 -0.0010997753 -0.02385131 -0.06951084 -0.06509789 -0.011799106
-0.016428819 -0.00787366 0.035439234 0.064429455 0.06766512 -0.035354264 0.013321517 -0.0076564653
0.04921464 0.03940091 -0.047835883 0.03300287 0.033437014 0.028320571 0.038707506 0.0043388773
-0.011119698 -0.0018159493 -0.020665672 -0.005233209 0.00015716866 -0.024125842 -0.012974982 -0.020433629
-0.016813286 -0.013413272 0.0097744 0.009650842 0.0068728095 0.021113122 -0.011691916 0.0044345735
0.009402398 0.0062220325 0.013236399 -0.0034345598 0.0007559186 0.014225584 -0.0010894372 0.008703763
-0.010537979 -0.0105755795 0.010105459 -0.0067932494 -0.0047349357 -0.012088848 0.0098786885 -0.002642352
0.013875627 -0.0029227387 -0.005596112 -0.0040845727 0.007364108 0.0068149003 -0.0039038565 0.007628363
-0.011361955 -0.01534092 -0.004210206 -0.0152269695 -0.005131731 0.006781697 -0.008765153 -0.015290329
0.011306134 0.007023093 -0.013778387 -0.016715085 -0.016978813 0.015050014 0.009084617 -0.0038795331
-0.025102602 -0.03184785 -0.03162948 -0.009554499 -0.0042461925 0.016468422 0.0043218834 -0.004358785
-0.014177627 -0.007083387 0.014336822 0.01609261 0.018631162 -0.009530998 -0.011984116 0.02748636
-0.0015195938 -0.0037160486 0.012653558 -0.0016261435 -0.00052288244 -0.006586017 0.019746361 0.02249373

linear_layer.bias f4 [5]
00000000: 32df 9ebc d939 b3bc 9aee 063d f542 873d
00000010: a1f1 83bd
-0.019393537 -0.02187817 0.032942392 0.06604568 -0.064425714
